model/best_model.pth (torch, 689508 bytes, 7 tensors)

model.0.weight f4 [512, 13]
00000000: 9f84 9d3f 558c 5b3f 7460 b63f cff2 893f
00000010: 6a5b cb3e 80ea 473f a60e ab3e 8e6b e53e
00000020: 972b 313f 13a4 303f 40f7 333f 7fed 383c
00000030: 9784 163e 9662 b93f bb22 883f ea52 de3f
00000040: 199b 403f 124b e23e 30a2 b63e c470 693e
00000050: 6c5a 983e 6f4a 353f 3816 a73e bb63 b63e
00000060: 1077 ae3d 2345 e4bd 6f2c ad3f b30d 2b3f
00000070: 591c dc3f cf3f 773f 244c 513f 2f8b 4c3f
00000080: 5c78 4c3e 5be4 b03e 8852 093f 615c c53e
00000090: dfa5 793e 93be b53e 1914 143c 08b4 ba3d
000000a0: 0de4 2abe b039 393d 041f 033e ae44 0bbe
000000b0: eb30 88be dc2d 8f3d 3810 33bd 80a2 f33c
000000c0: 5412 44be d400 5f3e 722d 2dbe 685e 5fbd
000000d0: 7aad a53f c6c7 743f 9b71 c73f a9a4 273f
000000e0: d7ca d93e d511 e83e ab95 a6bd 4ece 0e3f
000000f0: 5e06 c53e 911c b03e 826a 893e 1304 9abd
00000100: cee9 8a3e 79bd 833f 1afe 753f d500 bf3f
00000110: f545 3c3f b9b9 f93e 7131 de3e 03e5 283e
00000120: 9f91 943e 088b 433f 8048 c63e 93a7 653e
00000130: 40e0 8f3e b5bc 313e 6140 9a3f ce03 0d3f
00000140: 9b6f dd3f 01ac 2d3f e705 d73e 1bec 583f
00000150: 0f86 ba3e a9dd b73e 76f7 ed3e bab1 343f
00000160: 1600 f03e 7a7c 213e d9df 503e af85 673f
00000170: 72ce 813f c691 f23f 28ff 393f 3b01 473f
00000180: 8a51 f13e 910e a0bd 25e7 f73e 4021 1e3f
00000190: 9b1b 4b3f c547 fe3e b85f de3e 4be1 363d
000001a0: 65ab 9e3f af6f fe3e 1f00 e93f 509e 7f3f
000001b0: 5184 0a3f eb83 4c3f c950 d53e 6a6e 0e3f
000001c0: c892 813e 3e92 0f3f eb90 e63e 42de 8fbd
000001d0: 7c2a b5bd 3888 a63f d8ea 243f 9304 f13f
000001e0: 3983 343f bdba b33e 70a3 0c3f 4eca cd3e
000001f0: 2925 8f3e 175d 183f 9e6f 853e 1771 803e
00000200: 0285 403e 2fa3 013e f815 5d3f e855 743f
00000210: 7a31 d73f c35d 913f 1e32 203f f36b 103f
00000220: 2c1c 973d 8f8f c13e 3cbd 193f c466 053f
00000230: d97b 253f 678a 56bd f511 813e 30b0 7d3f
00000240: e180 7e3f cf9d f13f 6f9b 833f 63f2 063f
00000250: 59ce 1b3f 9d75 873d 611a 1a3e 385e 423f
00000260: 97fe 1b3f e30e 5b3e c627 433e 749c e7bd
00000270: 6af1 773f b832 113f 9d83 c43f 3c60 5c3f
00000280: d5a3 403f 8e92 333f 1f16 da3d 5d25 043f
00000290: 093d f03e 3304 0f3f c51d 403e e791 ea3d
000002a0: d9c6 31be e15f aa3f 51ba 263f f145 b73f
000002b0: 9dbe 913f fb34 433f 2266 bc3e d20a a03e
000002c0: 3f6c 193e 81ec c13e f88e 353f 79c7 de3e
000002d0: 3d1c 9d3e a5fa 32be e6a4 753f ba71 2c3f
000002e0: 8951 c73f 05d0 883f 1038 883e 2462 213f
000002f0: 91c2 3b3e 9438 293e cad3 003f eace 2a3f
00000300: 8fdd 203f cec6 693e efdc 113e 4b81 653f
00000310: 2bc6 783f 98e8 f03f a52c 333f b0e1 373f
00000320: 89ad 1c3f 0aaa b5bd 7793 9f3d 20f0 a23e
00000330: 6f8f e63e ba13 293f 0f95 b33e 9dae de3d
00000340: 9078 733f e1ee 613f e182 d53f ad7a 533f
00000350: bb7c 273f 3789 ff3e 3139 d93e d1ac 613e
00000360: f9b4 193f d09b 203f 3605 903e fc8b 5e3e
00000370: 78f8 8a3c dacf 773f 8e10 033f e6c2 e83f
00000380: dd7d 553f 3137 303f bd25 dd3e bc5f 00bd
00000390: 656a 9b3e 5104 5f3e 095f 413f dcde ac3e
000003a0: aa80 843a 5bc5 33bd 9ae5 8a3f 9e0f f03e
000003b0: 91fe cb3f cacf 4a3f 83b0 ed3e e1cf 893e
000003c0: 2f97 cd3e aa69 183e 9484 b03e 126d 433f
000003d0: 8aec f43d a757 973e 5c33 0cbe 25d2 923f
000003e0: 39e0 153f c4f2 e03f cb39 1d3f 2c5b d43e
000003f0: ee99 203f dfe4 093e d3ff d23e 838a dc3e
1.2306098 0.85761005 1.4248185 1.0777224 0.3971818 0.78092194 0.33409613 0.4480862
0.6920714 0.6900036 0.7029915 0.011287092 0.14699017 1.4483211 1.0635599 1.7369053
0.7523666 0.441979 0.35670614 0.22796923 0.29756486 0.708167 0.3263414 0.35622963
0.08518803 -0.11145999 1.3529185 0.6681778 1.7196151 0.9658174 0.81756806 0.7989988
0.19967788 0.3454922 0.5364156 0.38547042 0.24379681 0.3549696 0.009037995 0.091163695
-0.16688557 0.04522103 0.128048 -0.13600418 -0.2659982 0.06991169 -0.04371664 0.029740572
-0.19147617 0.2177766 -0.16911867 -0.054533392 1.2943566 0.9561733 1.5581545 0.65485626
0.42537567 0.45326105 -0.08134016 0.55783546 0.3848142 0.34396794 0.26839072 -0.07520308
0.27131504 1.0292197 0.96090853 1.4922129 0.73544246 0.48774508 0.43397096 0.16493611
0.2901735 0.7638402 0.38727188 0.22427206 0.28100777 0.17357142 1.2050897 0.5508393
1.7299684 0.6784058 0.4199669 0.8473527 0.36430404 0.359113 0.4647786 0.7058369
0.46875066 0.1577014 0.20397891 0.9043836 1.0141127 1.8950737 0.7265496 0.7773625
0.47132522 -0.07815278 0.48418537 0.61769485 0.79339 0.4966413 0.43432403 0.04464845
1.2396055 0.49694583 1.8203162 0.9985094 0.5410815 0.7988879 0.41663197 0.5563723
0.25307298 0.5608252 0.4503244 -0.07024814 -0.08845994 1.3010321 0.64420843 1.8829521
0.7051273 0.35103408 0.54936886 0.4019341 0.27958038 0.59517044 0.2606172 0.2508628
0.18800738 0.12659906 0.86361647 0.9544358 1.6811974 1.1356739 0.6257647 0.5641472
0.0737842 0.3780484 0.60054374 0.5210993 0.646421 -0.052378085 0.25209013 0.99096966
0.99415404 1.8876284 1.028181 0.527136 0.60861737 0.0661423 0.15049125 0.75925016
0.6093535 0.21392398 0.19058141 -0.11309138 0.96852744 0.56718016 1.5352665 0.8608434
0.7524999 0.701455 0.106487505 0.5161951 0.46921566 0.5586578 0.18761356 0.1145361
-0.1736101 1.331051 0.65128046 1.431822 1.1386296 0.76252717 0.3679667 0.31258255
0.14982699 0.3787575 0.7092128 0.4351156 0.30685607 -0.17478426 0.9595474 0.6736103
1.5571758 1.0688483 0.26605272 0.63040376 0.1833594 0.16525489 0.50323164 0.66721976
0.6283807 0.22829744 0.14244436 0.8965041 0.9717738 1.8820982 0.6999 0.71828747
0.61202294 -0.08870323 0.077917986 0.31823826 0.45031306 0.66045725 0.3507466 0.108731486
0.9510584 0.88255125 1.6680566 0.82609063 0.654247 0.49909374 0.42426446 0.2203858
0.6004177 0.6273775 0.28128976 0.21733087 0.016964182 0.9680153 0.51197135 1.8184478
0.8339518 0.68834215 0.43192855 -0.0313413 0.3035461 0.2177899 0.7553564 0.33763778
0.0010109146 -0.043889385 1.0851319 0.46886915 1.5937063 0.7922331 0.4642373 0.26916412
0.40154406 0.14884058 0.3447615 0.76338303 0.11959179 0.2955906 -0.13691467 1.1470381
0.5854526 1.7574086 0.6141631 0.4147581 0.6273488 0.13466214 0.41210803 0.43074426

model.0.bias f4 [512]
00000000: 6b92 893f 726b 553f 2479 5f3f 6043 8dbe
00000010: 79fc 443f 0120 673f b822 4c3f b92c 793f
00000020: 52f0 323f c98a 273f 7734 6f3f fd31 623f
00000030: 277e 6c3f 641d 723f 0a5b 103f dd7b 833f
00000040: 2809 523f b205 833f f98e 143f 46a0 603f
00000050: 1f6b 523f cc31 453f 6df4 833f 29fc 1d3f
00000060: 4949 813f 2b08 773f 319f 503f f5a1 313f
00000070: 340a 8b3f 7dc6 433f 980b 563f f1e1 753f
00000080: 99cc 8e3f c8c8 443f 0886 2d3f e2ad 75be
00000090: 6d8d 253f 549d 813f b504 8a3f e64a 1c3f
000000a0: d6c0 1b3f 8320 6d3f c367 263f 0208 2e3f
000000b0: 3413 2e3f 9510 5f3f d75e 343f 5efb 863f
000000c0: eca0 8a3f 4c8b 4d3f c52b 543f 075b 843f
000000d0: a361 653f 7955 263f 6912 883f 2057 633f
000000e0: 7f9b 733f f507 4c3f a97d 113f 165d 433f
000000f0: 42c0 743f 6e13 383f 3c4f 2c3f 1d11 6c3f
00000100: 7d8f 193f 1ab2 7e3f d5ce 423f 2552 183f
00000110: 883d 793f adcd 293f 8145 5e3f 7ac7 78be
00000120: 7759 3f3f c9f8 223f 6fba 4a3f 51fe 833f
00000130: f9c8 5e3f e3b2 823f 218f 8c3f 0989 753f
00000140: 2fce 233f 584a 243f 4ec5 803f a169 5f3f
00000150: 38e5 343f 3b30 893f c30b 113f 86f1 713f
00000160: 2bd4 313f 7975 2e3f a315 6c3f aa19 773f
00000170: 8795 383f 54e2 883f 75af 873f a1ae 693f
00000180: af48 733f 9673 483f 5660 723f 2229 883f
00000190: 09d2 5d3f 2d85 5f3f 8065 7e3f 49d4 183f
000001a0: 6763 233f 8f41 8f3f 14ee 3e3f d270 5b3f
000001b0: 081a 883f 1a27 4ebe 2571 463f 250c 503f
000001c0: ac4d 2a3f 2849 893f 0e45 8c3f 80b1 643f
000001d0: 9c32 333f d35d 693f 8395 893f 4465 243f
000001e0: 0ab8 343f 5b2b 8b3f 5e94 903f 53e5 543f
000001f0: 691e 3c3f fc51 8e3f bd3d 203f afbe 6e3f
00000200: 3d34 113f b9bf 4c3f 74db 853f 4865 643f
00000210: eb34 393f fe71 833f 1679 333f e637 6a3f
00000220: 9d56 393f e413 713f a2f9 6f3f 61ac 503f
00000230: d6a7 493f ab87 253f 381b 423f 0961 1f3f
00000240: b426 3b3f fe25 6a3f 64e5 6c3f dd1d 7e3f
00000250: 3873 1e3f 9387 193f 055f 4d3f 7a6f 243f
00000260: 7b64 273f 6571 8bbe 74dc 713f 2a5f 5a3f
00000270: 79b1 763f 4542 803f 496a 3b3f c1ed 523f
00000280: 1d9f 483f a72e 6e3f 53f7 3c3f f336 2a3f
00000290: cbef 923f 413d 803f 08b1 1c3f 0135 5d3f
000002a0: e923 883f 7a4d 3d3f a41f bcbd d4a9 3d3f
000002b0: 95f4 1d3f a683 643f ce5b 513f f493 2f3f
000002c0: 7619 833f f354 4c3f 4a8a b8bd 9fda 8b3f
000002d0: d653 663f b958 193f 08b8 1b3f cc2f 533f
000002e0: 7b87 133f 585c 373f 88cf 8a3f 5e9a 313f
000002f0: ec6a 123f 8c23 393f 06d5 2e3f 2172 8c3f
00000300: 1815 533f 6e6e 4f3f 44ba 403f 243a 0d3f
00000310: 73d2 693f 0cb0 423f 1108 213f 9315 5f3f
00000320: 2327 893f 0441 4b3f 9ea5 203f c7bb 7c3f
00000330: 08f5 443f 0a28 333f d916 253f 9247 663f
00000340: 3cd8 8a3f a5c9 783f 7c81 583f d499 753f
00000350: a614 383f 1358 633f d322 563f af99 693f
00000360: f80f 563f c729 8f3f 1c81 0fbe 0bc8 8a3f
00000370: a831 803f 3662 763f 4f81 243f 8364 3e3f
00000380: 8305 67be 77e5 2f3f 307c 8e3f f09f 813f
00000390: 6a8f 913f 4d0e 3a3f 08b2 873f d39d 833f
000003a0: d1cb 3f3f 3ae5 703f 157a 5b3f a71f 6d3f
000003b0: bb3c 543f 4d6e 753f c80f 803f ce17 933f
000003c0: 4307 593f 8c94 903f 9b11 8b3f 61d2 323f
000003d0: 80ee 2d3f f37d 273f 6de0 383f c740 823f
000003e0: 5490 6d3f 1fa6 353f 5da5 673f 9469 1d3f
000003f0: 2567 693f 136a 503f f592 8d3f 544a 193f
1.0747808 0.83367074 0.8729422 -0.27590466 0.7694774 0.9028321 0.79740477 0.97333866
0.6989795 0.65446144 0.9343943 0.88357526 0.92379993 0.94576097 0.56388915 1.0272175
0.8204522 1.0236113 0.5803066 0.8774456 0.82194704 0.7702911 1.0308968 0.6171289
1.010049 0.9649684 0.81492907 0.6938775 1.0862489 0.76474744 0.8361144 0.96047884
1.1156188 0.7686887 0.6778264 -0.23992112 0.64668924 1.0126138 1.0782686 0.61051786
0.6084112 0.92627734 0.6500208 0.6798097 0.6799805 0.8713468 0.70457214 1.0545461
1.083036 0.80290675 0.82879287 1.0340279 0.89602107 0.6497417 1.0630618 0.8880482
0.95159143 0.7969964 0.5683237 0.7631391 0.9560586 0.7190465 0.673084 0.9221361
0.5998457 0.9949051 0.7609685 0.5950034 0.97359514 0.6632946 0.86824805 -0.24294844
0.7474589 0.63660866 0.79190725 1.0311986 0.8702541 1.0210842 1.098118 0.95912224
0.63986486 0.6417594 1.0060213 0.8727055 0.7066226 1.0717844 0.5665857 0.9450916
0.6946437 0.68148 0.92220515 0.96523535 0.7210316 1.069407 1.060042 0.9128209
0.9503278 0.7830137 0.94678247 1.0637553 0.86648613 0.87312585 0.99373627 0.5969892
0.6382355 1.1191882 0.7458203 0.85719025 1.0632944 -0.20132104 0.77516395 0.8126853
0.6652477 1.072545 1.0958574 0.89333344 0.699991 0.9115879 1.0748752 0.6421702
0.7059332 1.0872606 1.1295278 0.8316242 0.734839 1.111877 0.62594205 0.9325971
0.56720334 0.79980046 1.0457597 0.8921704 0.7234637 1.0269163 0.7010664 0.91491544
0.72397786 0.94170976 0.93740284 0.8151303 0.7877172 0.6466014 0.7582278 0.6225744
0.7310593 0.9146422 0.9253752 0.9926432 0.6189456 0.59972495 0.80223113 0.642326
0.65387696 -0.2723495 0.9447701 0.8530146 0.9636455 1.0020224 0.73209053 0.82394034
0.7836779 0.93039936 0.73814887 0.66490096 1.1479429 1.0018693 0.6120763 0.86409
1.0635959 0.73946345 -0.091857225 0.7408726 0.6170133 0.8926338 0.8178071 0.68585134
1.0242145 0.7981712 -0.090107515 1.0926093 0.89971673 0.59901005 0.60827684 0.8249481
0.576286 0.7162528 1.0844584 0.6937617 0.571944 0.72319865 0.682938 1.0972329
0.8245406 0.8102788 0.7528422 0.5516684 0.91336745 0.76049876 0.62902933 0.87142295
1.0715069 0.7939608 0.6275271 0.98724025 0.7693639 0.6998297 0.6448799 0.8995296
1.084724 0.97182685 0.8457258 0.9593785 0.71906507 0.88806266 0.8364689 0.9125013
0.83618116 1.1184624 -0.14014095 1.0842298 1.0015154 0.9624361 0.6425981 0.7437212
-0.22560696 0.6870951 1.1131649 1.0126934 1.1371891 0.7267807 1.0601206 1.0282539
0.74920374 0.9409977 0.8573316 0.9262642 0.8290517 0.9587143 1.0004816 1.149164
0.84776706 1.1295333 1.0864748 0.6985226 0.6794205 0.6542656 0.72217447 1.0176018
0.9279835 0.70956606 0.904867 0.61489224 0.9117301 0.81411856 1.1060473 0.5987904

model.3.weight f4 [256, 512]
00000000: 223a 8dbc 8b36 2cbd 8304 c8bd 9647 f6bc
00000010: d97a 59bd 91ed bebd abd2 5cbd 7b6a efbc
00000020: 31c8 27bd 351e e9bc 3323 63bd be53 aabd
00000030: ddb4 a3bc 102c 94bd 9fb9 23bd a173 c4bd
00000040: ad2b 32bd c5a6 65bd 7a7a 19bd dd4f 89bd
00000050: 53a5 9cbd 185a 28bd 305f 86bd 4a8d 8bbc
00000060: 74e4 d4bd d5e2 27bd 6766 d0bd 327c 95bd
00000070: ea05 a0bd fec9 a5bd 71e9 9cbc 1a2e b2bd
00000080: ced4 adbd a3ef 59bd 2bd2 61bd c081 31bc
00000090: c383 a0bd 1402 87bd 8499 cfbd 35ab b1bd
000000a0: 91cc d8bc 3cae 9cbd bf72 7cbd da35 bdbc
000000b0: b0e1 a2bb f0ea 8dbd d8c9 0bbd 7202 54bd
000000c0: b4cd 45bd c6d7 4abd 308b b3bd e42d 49bd
000000d0: facc 38bd cc3a babd d113 a1bd a048 cebd
000000e0: 0f8c 7fbd 3ad7 a0bd 2454 80bd 6222 03bd
000000f0: 15e2 3fbd 26f1 abbd 1cb0 4ebd f29d babd
00000100: f85a 88bd 5815 debc 9052 5abd f224 8cbc
00000110: f8d7 97bd 2ac0 cc3d 8ad2 29bd 99db bcbc
00000120: 3de8 16bd 9a7d a6bd 7eca bfbc d91c 4fbd
00000130: ea2f 8dbd d5f2 f9bc 846a 1fbd f073 71bd
00000140: 7c27 b1bd 4673 9f3c fa42 8cbd cab0 05bd
00000150: c402 b7bc 6bfa b7bd 1f8c 93bd 0641 16bd
00000160: fd8f 6ebd b459 d1bc 20a2 debc 23c2 25bd
00000170: 0780 aabd 0e7b b8bd 5145 13bd cf5f 6bbd
00000180: ac39 39bd 7faa 77bd 2da3 abbd f689 d4bd
00000190: a9c6 a8bd 2d51 30bd a527 a5bd 4266 a5bd
000001a0: b60e 21bd 9d23 c7bd 931e d7bc e77d afbd
000001b0: 74a5 40bd 788f ff3b 3295 79bd 2396 5fbd
000001c0: 668e 91bd cf88 52bd d358 59bd e8ef 5bbd
000001d0: d602 9cbd 921a 73bd 948a bbbc 1888 9cbd
000001e0: 31f4 88bd 5802 91bd c284 00bd dffc 97bd
000001f0: b5b3 82bd 67bb 8dbd 26d4 9bbd ce2e f3bc
00000200: 7269 bbbd b135 a4bc 5df0 52bd 7dbb d9bc
00000210: 824a c5bd 1622 9fbd 1d42 d1bd 6450 60bd
00000220: 8512 79bd f558 6abd f673 ecbc d8d3 c2bd
00000230: 06d1 aebd 16b5 6ebd 4df6 1ebd f9b0 b7bc
00000240: 5945 8dbd e1b7 8fbc a16f c5bc 7292 03bd
00000250: f69c b6bd 9566 a0bd f15c 64bd 9d80 85bd
00000260: 0479 64bd 487f 6bbc 2b91 8bbd 57da 80bd
00000270: 3138 8cbd 01df c7bd eb4d 0cbd 4a31 89bd
00000280: 89bd b1bd 62be 9abd 461a f3bc 18b0 a1bc
00000290: a9eb 2abd ae96 d7bc b4ec 77bd f45f 1dbd
000002a0: 1d75 2bbd 7e66 04bd f749 24bd bff3 babd
000002b0: 8c9b 39bd da93 a5bc 5e26 d3bd 9b8f cdbd
000002c0: 75ee 8bbc 3729 93bd dc55 18bc aa3b 94bd
000002d0: ba2a 55bd 7f9c 37bd 5200 78bd 982c 24bd
000002e0: 30b4 b8bc 409a 74bd 1249 c7bd 467a 9cbc
000002f0: b7bb 07bd bd4b 94bc 8412 a2bd cf49 c8bd
00000300: ff28 85bc 758e 98bd 4151 88bc f954 bfbd
00000310: 5b9b b1bd 1650 13bd 08e5 15bd 29f0 7cbd
00000320: 563e afbd 132a b4bc 0a1a 85bd 3c85 d5bc
00000330: e8eb b7bd cf1a d3bd ae4b 64bd 5756 8bbd
00000340: 6f9b 51bd b484 13bd 6ce2 8bbd ff06 90bd
00000350: dd92 c5bd ba7d d5bd 5b98 24bd 5cae 8dbd
00000360: 1174 d1bd 9126 bcbd 9858 a53b 5fd2 27bd
00000370: a997 49bd 4565 cbbd 6afd 83bd 22eb efbc
00000380: b5a3 e9bc c92d c1bd 7b61 07bd de8d 25bd
00000390: bf7e 57bd ffb7 aabd acc8 9abd b63b adbd
000003a0: bc95 b0bd faf3 a2bd 146c d3bd 8ad8 08bd
000003b0: 701c b6bd fad0 9e3d 6fcf 94bc a9d6 c6bd
000003c0: e4bd b0bd 617d b4bd 8e21 b7bd a999 6fbd
000003d0: 72d1 d4bd 7893 bebd 88b2 e0bc 7050 14bd
000003e0: b4ba 26bd d019 b1bd e564 a4bd 18bd a5bd
000003f0: a779 45bd acd4 18bd 8308 8ebc 1aed 7abd
-0.017239634 -0.042044204 -0.097664855 -0.030063432 -0.053095672 -0.09322656 -0.053911846 -0.029225579
-0.0409624 -0.028456787 -0.05545349 -0.08316754 -0.019983703 -0.07234967 -0.039971944 -0.09592367
-0.043498684 -0.056067247 -0.03747032 -0.06704686 -0.076487206 -0.041101545 -0.06561124 -0.017035145
-0.103951365 -0.04098781 -0.10175782 -0.07299079 -0.07813628 -0.080951676 -0.019154282 -0.087001994
-0.08487855 -0.05320705 -0.055132072 -0.0108341575 -0.078376316 -0.06592193 -0.10136703 -0.08675233
-0.026464732 -0.0765042 -0.061632868 -0.023096967 -0.0049707517 -0.069295764 -0.03412804 -0.051760145
-0.048291877 -0.049522184 -0.08766782 -0.04911603 -0.045117356 -0.09093246 -0.07865108 -0.10072446
-0.06238943 -0.07853551 -0.062660486 -0.032015212 -0.046846468 -0.08395605 -0.05046092 -0.09112157
-0.06657976 -0.027109787 -0.053301394 -0.01710746 -0.0741424 0.0999759 -0.04146055 -0.023053931
-0.036842573 -0.08129425 -0.023411985 -0.05056462 -0.068939045 -0.0305113 -0.03891994 -0.058948457
-0.08650109 0.019464146 -0.06848712 -0.032639302 -0.022340186 -0.0898331 -0.0720446 -0.036683105
-0.058242787 -0.02555547 -0.027176917 -0.040468346 -0.083252005 -0.09007846 -0.035954777 -0.057464417
-0.045221016 -0.060465332 -0.08380733 -0.103778765 -0.082410164 -0.043046165 -0.08064202 -0.08076145
-0.03932067 -0.097235896 -0.026259696 -0.08568936 -0.04703279 0.007799085 -0.0609333 -0.05458654
-0.071072385 -0.051400002 -0.053063225 -0.05369559 -0.076177284 -0.05935151 -0.022893228 -0.07643145
-0.06687201 -0.07080525 -0.031376608 -0.07421278 -0.06381933 -0.0692051 -0.076088235 -0.029685404
-0.091509715 -0.020045133 -0.05149876 -0.02657866 -0.09633352 -0.07770173 -0.10217688 -0.054764166
-0.060808677 -0.057213742 -0.028863888 -0.09513062 -0.08535962 -0.058278166 -0.03880911 -0.022423254
-0.06897993 -0.017543735 -0.02410108 -0.032122083 -0.08916657 -0.07832066 -0.0557527 -0.06518672
-0.055779472 -0.014373608 -0.06814798 -0.06291645 -0.06846655 -0.097593315 -0.034253996 -0.06698854
-0.08678729 -0.07555844 -0.029675614 -0.019737288 -0.04172865 -0.026316967 -0.060528472 -0.038421586
-0.041859735 -0.032324307 -0.0401096 -0.09128522 -0.045314357 -0.020212103 -0.10310052 -0.10037156
-0.017081479 -0.071855955 -0.009297814 -0.072379425 -0.0520427 -0.04482698 -0.06054718 -0.04008159
-0.022546858 -0.059717417 -0.09730734 -0.019101273 -0.033138003 -0.018102521 -0.07913688 -0.09779703
-0.0162549 -0.074490465 -0.016640307 -0.09342379 -0.0867221 -0.035965048 -0.036595374 -0.061752472
-0.085568115 -0.021992719 -0.06499107 -0.026064508 -0.089805424 -0.10307848 -0.055736236 -0.068035774
-0.051173624 -0.036015227 -0.06830296 -0.070325844 -0.096471526 -0.10424371 -0.04018436 -0.06918022
-0.10227216 -0.091870435 0.0050459616 -0.04097211 -0.0492169 -0.09931425 -0.06444819 -0.029286925
-0.028520444 -0.09432561 -0.03305195 -0.0404185 -0.05261111 -0.08335876 -0.075578064 -0.084586546
-0.086223096 -0.07956691 -0.10323349 -0.033409633 -0.08892143 0.07754703 -0.018165318 -0.09708912
-0.08629969 -0.08812977 -0.08941947 -0.05849615 -0.10391511 -0.09305471 -0.02742888 -0.036209524
-0.040705398 -0.086475015 -0.080270566 -0.080927074 -0.04821172 -0.037312195 -0.017338043 -0.061261274

model.3.bias f4 [256]
00000000: 7146 83bc 904f 533f 9199 593f a453 623f
00000010: e6b1 613f 98d9 563f d089 9dbd 8d7a 5e3f
00000020: bb70 5d3f fe8e 01bd 7366 34bd 0074 30bd
00000030: ae49 ccbd 28b4 25bd cfc9 90bd 827b 39bd
00000040: b374 5f3f 8652 a9bc 61c3 513f 5a0b 6cbd
00000050: 3b9a bcbd 4df8 5c3f 15b2 673f 0f4e d5bd
00000060: 9fcc 603f 0461 77bd 9ee9 b4bd d6e1 543f
00000070: 79c5 98bd 133b 663f 8374 8fbd 24b1 533f
00000080: 2e5d 12bd e2d6 15bd 126f 5b3f 11f4 5e3f
00000090: 2dd6 acbd d59b 593f 5b25 583f 7cd9 d2bc
000000a0: 988b 5cbd e3b0 bcbd 93a4 673f 8fe5 5cbd
000000b0: 9f90 96bd 9c43 5b3f 0639 573f 3c21 5e3f
000000c0: 500a 5e3f 7185 543f 9d16 5bbd cdfc fdbc
000000d0: 0d15 61bd 70b9 0dbd 212c 593f cc2e 5d3f
000000e0: 07d5 653f 7dd9 633f f765 633f 496f 5a3f
000000f0: f9a7 30bd ba6e 523f c3a1 19bd 7d10 583f
00000100: d932 d5bd 82bc d7bc d124 51bd 6261 9abd
00000110: 7420 533f ffc3 f7bc 4cd6 ccbd 7159 85bd
00000120: 7f4f 72bd 68bf 603f 7565 95bd 946e 91bd
00000130: 1908 5d3f ae13 623f a2db 5d3f 3b05 4abd
00000140: 1db7 5c3f 627e 623f 96a9 5e3f 1aaf 583f
00000150: 6c4e a6bc a5cb 623f 99a8 633f 5e24 a3bc
00000160: 3a0b 2ebd 0a69 593f 0814 2bbd 4290 5d3f
00000170: 08ff 593f 59b9 503f fee5 06bd 5c2b a3bd
00000180: 29ab b0bc 20e4 4abd 4264 86bd 81a0 aebd
00000190: 91f1 553f 981c 573f 671d 4fbd 998f 583f
000001a0: 96ae 643f b3e4 663f 2ca8 0cbd bed5 663f
000001b0: 6241 93bd b78b 93bc 5ac2 c3bd 8eb4 613f
000001c0: df19 563f f958 84bd 54f7 63bd f215 653f
000001d0: 268d 77bd 8092 5e3f 9070 16bd 9473 b9bc
000001e0: 80bc 663f 407d 5b3f 271f 0cbd 7210 643f
000001f0: 2c39 a0bd 8d42 5c3f 9b6a 95bd 15b3 c9bd
00000200: 9a69 43bd bed2 653f 1857 5b3f f2b2 86bc
00000210: 38a6 76bd ad8c 37bd 9ff9 03bd 18f9 87bd
00000220: 1fa4 d0bd 9a5d 543f f23c 5d3f 3c03 583f
00000230: aac7 643f 2a61 633f c409 533f c908 573f
00000240: 1708 cdbd 4a39 663f bd4d 6fbd df71 c2bd
00000250: ebd2 563f e10d 543f d845 d9bc 9b1d a3bc
00000260: 38f1 debc 9f18 e2bc a141 643f 1b9f 8fbd
00000270: 83f1 fabc bab4 563f 4a63 8ebd 3bd6 cebc
00000280: 8214 5b3f 40ed 583f 70bb b9bd 4709 60bd
00000290: 95a4 87bd d154 593f 5cdf 5a3f 1fe5 c4bd
000002a0: 033b 613f 1392 583f f64b a8bd 0633 5f3f
000002b0: 3fb3 543f 90df 593f cd17 02bd 726f 9cbd
000002c0: 1805 553f c965 603f 5fe7 e1bc 4269 bebd
000002d0: 7def 56bd a138 5e3f 3cef 53bd ccce 503f
000002e0: aea3 573f b9ef 58bd 676b 643f 68ae 90bd
000002f0: 68e7 05bd dba9 39bd a5e9 643f 8af8 613f
00000300: 396b 653f dbff b3bd ddd2 5b3f 888d 5a3f
00000310: f189 653f f8b4 babd 16b0 593f 196f 89bd
00000320: f01a a3bd 481e 643f 1502 82bd 5811 633f
00000330: 1f4a 29bd 7aa4 573f c007 aabd df17 9cbd
00000340: ed7c 66bd ad8c 94bd 9e61 653f d2e7 89bd
00000350: b1ff 673f 398f 30bd 8155 583f 63b4 533f
00000360: a0c8 693f fb09 5c3f 1d11 5b3f 7728 d6bc
00000370: a7fe 46bd 728b b5bd 56fc 5e3f 7a3b 5b3f
00000380: 39ff cdbd 6b1b 1fbd 567b d6bc f05a 68bd
00000390: e40d 4a3f 6b10 5dbd 0173 9ebd bb08 5f3f
000003a0: 512b 96bd 5992 6dbd 75d1 4ebd 03cc 4ebd
000003b0: e7a4 653f 4993 5d3f e61e 613f 4880 563f
000003c0: c974 603f c57a 68bd 7a92 613f 2aba 5a3f
000003d0: 0cd0 8bbd cca1 533f e0ff 653f eb24 a4bd
000003e0: 4979 50bd 2bb5 523f 9c13 563f 0ce6 82bc
000003f0: 1c5a 5a3f a68e bcbd dc9a 5b3f 0254 4d3f
-0.0160248 0.8254328 0.8499995 0.88408875 0.88162076 0.8392577 -0.07692301 0.8690575
0.8650014 -0.03163051 -0.044043016 -0.043079376 -0.09974991 -0.040455014 -0.07069742 -0.0452838
0.87287444 -0.020669233 0.8193875 -0.057628013 -0.092091046 0.86316377 0.90506107 -0.10415279
0.87812227 -0.060395256 -0.088336214 0.831571 -0.0745954 0.8993389 -0.07004645 0.8269217
-0.035733394 -0.03658188 0.85716355 0.87091166 -0.08439288 0.85003406 0.84432 -0.02573847
-0.053844064 -0.09213426 0.90485495 -0.05392986 -0.07351803 0.8565004 0.84071386 0.8676946
0.86734486 0.83016115 -0.053488363 -0.031004334 -0.054951716 -0.034600675 0.8483296 0.8639953
0.8977818 0.89003736 0.8882746 0.8532606 -0.04312894 0.82200205 -0.037507784 0.8440016
-0.10410089 -0.026335005 -0.0510605 -0.075381055 0.82471395 -0.030244825 -0.100018114 -0.065112
-0.059157845 0.8779206 -0.07294742 -0.07101169 0.8634048 0.8831128 0.8666326 -0.049321394
0.8621691 0.88474095 0.8697752 0.84642184 -0.020301066 0.88591987 0.88929135 -0.019914802
-0.042491175 0.849259 -0.04176715 0.86548245 0.8515477 0.8153282 -0.03293418 -0.079672545
-0.02156599 -0.049533963 -0.065620914 -0.085267074 0.83571726 0.84028006 -0.05056515 0.8459411
0.89328897 0.9019272 -0.03434007 0.90169895 -0.07190205 -0.018010957 -0.09558554 0.8816613
0.83633226 -0.06462283 -0.055655792 0.8948661 -0.060437344 0.8694229 -0.03672844 -0.02263812
0.9013138 0.8573799 -0.034209397 0.89087594 -0.07823405 0.8603905 -0.07295724 -0.0984861
-0.04770813 0.8977469 0.8567977 -0.01644275 -0.060217112 -0.044811893 -0.03222048 -0.06639308
-0.101875536 0.82955325 0.8642112 0.84379935 0.89367163 0.88820136 0.82436776 0.8399778
-0.10011309 0.89931166 -0.058423746 -0.094943754 0.83915585 0.8283368 -0.026522562 -0.019911578
-0.027214631 -0.02759963 0.8916264 -0.07012769 -0.03063274 0.83869517 -0.06952532 -0.025248637
0.8557817 0.84737015 -0.09068954 -0.054696348 -0.066231884 0.84895045 0.8549707 -0.09614014
0.8798067 0.8459789 -0.082176134 0.8718723 0.8308601 0.85106754 -0.03176098 -0.07638444
0.832109 0.8765531 -0.027576147 -0.0929742 -0.052474488 0.8680516 -0.051741824 0.81565547
0.8423413 -0.052962992 0.8922638 -0.07064515 -0.03269139 -0.045328002 0.89419013 0.88269866
0.89616734 -0.08789035 0.85868627 0.8537221 0.89663607 -0.09116548 0.8503431 -0.06710643
-0.07964122 0.89108706 -0.06348053 0.8869834 -0.041330453 0.84235346 -0.083022594 -0.076217405
-0.056271482 -0.07253394 0.89602077 -0.06733669 0.9062453 -0.043105338 0.8450547 0.82697123
0.91321754 0.8595273 0.8557299 -0.026142342 -0.0485827 -0.08864488 0.87103784 0.8563763
-0.100584455 -0.038844507 -0.026181858 -0.05672735 0.78927445 -0.053970736 -0.07736779 0.87122697
-0.07332481 -0.058000896 -0.050492723 -0.05048753 0.89704746 0.86552864 0.8793777 0.8378949
0.876782 -0.056757707 0.8811413 0.85440314 -0.06826791 0.8266876 0.8984356 -0.08014854
-0.050896917 0.8230769 0.8362367 -0.015978836 0.85293746 -0.092068955 0.8578317 0.8020631

model.6.weight f4 [128, 256]
00000000: 3e44 66bd e383 febb 1941 bebd 97b1 f3bd
00000010: b731 a9bd 2ab4 3ebd e3f8 13bc c4cc b1bd
00000020: bd15 48bd d924 53bb a31d c1bb 83b6 c9bc
00000030: 604e 47bc 2004 33bd 45f4 e4bd d0fe 3dbd
00000040: 35fe 82bd 2671 f2bd a64c a939 9c04 22bc
00000050: 6ed0 c0bd c336 d2bd 1b1a a0bd a67f d9bd
00000060: e851 80bd 338b 6ebd d4fe c9bd 0876 623d
00000070: 1c5c 9ebc d73c 16ba e5b1 d6bd fa38 afbd
00000080: 9e5d e8bd 2dd9 32bd 4993 f7bc 6431 f0bd
00000090: f68b 7bbb b008 f2bd 9f98 e0bd f719 e1bd
000000a0: 946e 90bd 2b33 00bd d52b e0bd 8772 2dbd
000000b0: d839 ddbd f47d c9bd 407b 90bd e887 42bd
000000c0: 9888 73bd 527e 77bd 579d efbd 084a adbb
000000d0: 299a 4cbd c318 a2bd ad72 84bc 7593 80bd
000000e0: ad50 dcbc 2f90 a0bd 4cbe 1ebd a8b6 c8bc
000000f0: c69f 143d 80c5 693b 2439 073d 08e7 83bd
00000100: d537 c2bc 14b7 f3bd 5dec d9bc 467b 39bd
00000110: 2734 f4bd 66ba 18bc 6080 28bd f16a 2ebd
00000120: d0c9 babc 03b4 56bd 3657 d2bd 89d2 ccbd
00000130: 9037 033c e7a9 bfbd e67b e9bd 3552 e0bd
00000140: 9ce8 f0bd c332 ccbd 9d32 f9bd a8d8 0fbd
00000150: 179f 69bd 5a24 93bb c945 09bd 9466 9fbd
00000160: 74cb e9bc df80 aebc 1620 64bd 5954 05bd
00000170: 8ab3 37bd ca43 24bd b4f7 d13c 12c4 edbc
00000180: da52 b1bc b343 c2bd f59d 7cbc e5da 8ebd
00000190: d1ee e4bd 29bc 88bd 42c9 62bc 1a81 05bc
000001a0: 9702 b2bd 793f 0ebd d1dc f7bd e115 2bbd
000001b0: 41fe b1bc 1bac 82bd 0573 88bd 955f 91bd
000001c0: 1d83 ccbc db7f c7bc 7c58 84bd 85ac 8138
000001d0: 80c6 2e3c 6bc3 7ebd 00b5 16bd df64 d4bc
000001e0: 4de1 7bbc 98f2 cebd de08 bdbc a2f9 86bd
000001f0: 1428 bebd f94c e73a 56e6 17bb cc8a 663d
00000200: b1ba 16bd ef98 94bd d06d d1bb 0236 c2bd
00000210: 9a0d 2abd 5b67 01bd f47d 01bd fc8c c0bc
00000220: 44de bcbc fca8 c439 1707 81bc 234f 37bd
00000230: fb72 54bc 5d8a ecbc dc3c f8bb d2aa c5bd
00000240: fd01 c9bd 88a5 35bb 6525 47bd 94a6 b0bd
00000250: 9e88 79bd 303f bbbd 6794 87bd 5ecc 1f3b
00000260: 6e29 c2bd 0cb8 8abd ec37 c6bc 8046 dfba
00000270: 6449 8cbc bbcb 03bc 9003 62bb 39c8 56bd
00000280: 149c f5bd 87cd 28bd 5f79 c6bc cfbc 5fbd
00000290: 71f8 fbbc ac8e 7bbd 3898 093c 072e 1bbd
000002a0: 8987 ccbd 6a14 d4bd 9605 fbbc 9198 bebc
000002b0: dbc6 8dbd 8b36 5abd b0ba e1bc 9ecf a3bb
000002c0: 7a08 10bc 7cec 9abd 8ddb 6cbd a3a2 2bbc
000002d0: 0e08 0ebd ba4b 33bd db35 c7bc 4446 37bd
000002e0: f68a 17bd 8fe3 b1bb 3e65 8dbd aa3f 8ebd
000002f0: 4f33 3fbd e848 12bd e6ec 07bc ef91 b4bd
00000300: f2e3 fabd 1cb4 60bd 2a60 dfbd fdb9 b3bc
00000310: b18a d1bd 00cc babd aa40 f1bd d48b b4bd
00000320: 71bc e0bd 67fc c3bd 5847 92bd 0e47 efbd
00000330: 560d 87bd d9b0 c0bd 5cca fabc 7fac f2bd
00000340: ac3f 12bd 2b99 26bd cc56 cabd d14a a2bd
00000350: 9785 c0bd c50a ebbc 51b2 debd c0eb 1b3b
00000360: 4bf0 5cbd 60c4 72bd 045f 4fbd 3ad7 86bd
00000370: 7d78 e2bd b148 9dbd df8d 1fbd d113 adbd
00000380: 8d78 7abd f20d 18bc fd97 17b7 5a56 ebbd
00000390: cbf6 fdbc b714 a4bd 4947 efbd 1d44 8bbd
000003a0: bd95 c5bd f0e2 b5bd 8c10 83bd 726c 53bd
000003b0: d354 a3bd 3f30 4ebc 0273 f1bd 59d4 b6bd
000003c0: 7b27 e5bc de05 62bd 7971 bfbd 4497 98bd
000003d0: 8735 f5bd 966d 01bd 2a2b e0bb e1c6 a8bd
000003e0: 94cd 9dbb f459 f2bb e7a9 fabd 43d7 93bd
000003f0: cbe2 7fbd d778 f4bc 47e0 e5bd 2546 56bd
-0.056217425 -0.007767187 -0.0928976 -0.11899107 -0.082614355 -0.046558537 -0.009031507 -0.08681634
-0.048848856 -0.0032218008 -0.0058934256 -0.024623161 -0.012164682 -0.043705106 -0.11179403 -0.046385586
-0.063961424 -0.118379876 0.000322913 -0.009888794 -0.09414755 -0.10264351 -0.07817479 -0.1062005
-0.062656224 -0.05823822 -0.09863058 0.055288345 -0.01933103 -0.0005731112 -0.104831494 -0.08555789
-0.11345981 -0.043664146 -0.030221598 -0.117281705 -0.0038382984 -0.11818063 -0.1096661 -0.109912805
-0.07052341 -0.031298798 -0.1094586 -0.04234555 -0.108020484 -0.09838477 -0.07054758 -0.04749289
-0.059456438 -0.060423203 -0.11699932 -0.005288366 -0.049951706 -0.07914879 -0.016167963 -0.06278125
-0.026893938 -0.07840001 -0.0387557 -0.02450116 0.036285184 0.0035670698 0.033013478 -0.0644055
-0.023708263 -0.11900154 -0.026601965 -0.04528358 -0.1192401 -0.009321785 -0.041138053 -0.042582456
-0.02280131 -0.052417766 -0.102705404 -0.10001094 0.008008853 -0.09358578 -0.11400585 -0.1095318
-0.11763117 -0.099706195 -0.12167857 -0.03511873 -0.057036486 -0.0044904174 -0.033513818 -0.07783237
-0.028539397 -0.021301685 -0.055694662 -0.032551143 -0.044848956 -0.04010371 0.02563081 -0.029024158
-0.021645952 -0.09485569 -0.015418519 -0.069753446 -0.11178363 -0.06676514 -0.013841929 -0.008148456
-0.086919 -0.0347285 -0.12102664 -0.041768912 -0.021727683 -0.06380483 -0.06662563 -0.07098309
-0.024964863 -0.024352958 -0.064621896 6.1833336e-05 0.010667443 -0.062198084 -0.03679371 -0.025927005
-0.01537354 -0.10104865 -0.023075517 -0.065905824 -0.09284988 0.0017646841 -0.0023178062 0.05628471
-0.036799137 -0.07255732 -0.0063912645 -0.094829574 -0.041516878 -0.031592708 -0.03161426 -0.023504727
-0.023055203 0.00037509936 -0.015750451 -0.044753205 -0.012966867 -0.02887457 -0.0075756144 -0.09651722
-0.09814832 -0.0027717073 -0.048619647 -0.08625522 -0.060921304 -0.091429114 -0.066201024 0.0024383287
-0.09480558 -0.067733854 -0.024196588 -0.001703456 -0.01712484 -0.008044179 -0.0034486987 -0.05243704
-0.1199266 -0.04121163 -0.024227796 -0.05462342 -0.030758115 -0.06141536 0.008398108 -0.037885692
-0.09986789 -0.10355456 -0.030642312 -0.023266109 -0.06922694 -0.053274672 -0.02755484 -0.004999115
-0.0087910835 -0.07564637 -0.057826567 -0.010475787 -0.03467565 -0.04377339 -0.024317672 -0.044744745
-0.036997758 -0.0054287384 -0.06904076 -0.06945737 -0.04667979 -0.03571406 -0.008296227 -0.08816897
-0.12250508 -0.054859266 -0.10907014 -0.021939272 -0.102315314 -0.09120941 -0.11779912 -0.088157326
-0.10973442 -0.09569626 -0.07142514 -0.116834745 -0.065943405 -0.09408731 -0.03061407 -0.11849307
-0.035705253 -0.040673416 -0.098798364 -0.07924426 -0.0940048 -0.028691659 -0.10873855 0.002379164
-0.0539401 -0.05926931 -0.050627723 -0.0658402 -0.110581376 -0.076798804 -0.03895366 -0.08451045
-0.061150122 -0.009280669 -9.035689e-06 -0.1149108 -0.03100147 -0.080117635 -0.116835184 -0.06800101
-0.09647701 -0.088811755 -0.063996404 -0.051617093 -0.07975163 -0.012584745 -0.11789514 -0.08927221
-0.027972927 -0.055181377 -0.09347815 -0.07450727 -0.119731 -0.03159865 -0.006841083 -0.08241058
-0.0048157666 -0.007395977 -0.122394376 -0.07218792 -0.062472146 -0.029842777 -0.11224418 -0.05231299

model.6.bias f4 [128]
00000000: 91c4 edbd 93db 3e3f 7a14 77bd 733b 423f
00000010: ec53 9cbd 6526 f73a 76b6 423f ccc0 353a
00000020: 0a50 62bd 5fc3 523f ff6d 3d3f e31b 473f
00000030: b537 13bd 709a 583f dbc7 7fbd 1dee 4c3f
00000040: 575f 553f 67d0 4d3f 5ddc 4e3f 10d9 4e3f
00000050: 46b2 413f e4b5 15bd c14f babd 5868 1cbd
00000060: a9cd 8cbd 720f adbd 01af eabb a9e6 02bd
00000070: acb7 5c3f d7ad 5b3f 64ce 523f 8952 6dbd
00000080: ecc3 9cbc fab6 3e3f 69b1 8bbc 169c 01bd
00000090: 8e2d 593f 5b39 0fbc 499b 513f 33b7 2abd
000000a0: 1ed5 403f fa85 5a3f e868 3f3f 9afb edbd
000000b0: 2bd1 12bd 3977 cdbd 6eaa 573f 6592 f4bd
000000c0: c6a0 523f 57a2 1fbd e281 413f f74f 3e3f
000000d0: 2887 483f c6d8 e9bd 5260 463f 4522 423f
000000e0: d6a3 3f3f a69a 513f 1eac c2bd 8e55 4b3f
000000f0: a94a 9abd df2a 473f e09c d1bd 22a0 513f
00000100: eee0 9bbd 1824 96bc ddd5 3d3f 3bcc 93bd
00000110: 0774 453f 77ac c8bd 17d3 4d3f cf1f bcbd
00000120: 6151 3d3f 101d a039 2389 503f 4931 4d3f
00000130: 4fa9 513f b2b2 573f 7e4e 8dbc 304d 7fbd
00000140: 0a6c 483f d886 89bd 0193 4c3f 1174 4cbd
00000150: 7a45 4c3f 0a77 26bd 95e6 2cbc 9938 3e3f
00000160: 5120 73bd f5b9 543f 4368 503f a891 4c3f
00000170: 6916 cabd cc8a 4b3f 0d6a 29bc 95ac 573f
00000180: 98ca 3e3f b52b 5a3f de9a 493f 4fd5 acbc
00000190: 5f17 463f 3c51 543f c9a1 bbbc d674 d4bd
000001a0: c661 4a3f b000 483f ac53 62bd 4c7b 443f
000001b0: 598a 3d3f 991e a1bd 4601 8cbc 97ce 11bd
000001c0: b0c9 b2bd 00f7 f1bd d918 413f b1c9 493f
000001d0: 156a 22bd ec90 0abd 4123 443f 74cb 48bd
000001e0: df8a 493f 1dd8 d9bd bb5c 58bd d998 c4bd
000001f0: a0f0 453f 4e09 8bbd 5230 bcbd 91bb 94bc
-0.11609758 0.74553794 -0.060322262 0.7587196 -0.07633194 0.0018856047 0.76059663 0.0006933331
-0.055252112 0.8232936 0.73995966 0.77776927 -0.0359418 0.8461065 -0.062446456 0.8005083
0.833486 0.8039612 0.80805 0.8079996 0.7566265 -0.036550418 -0.09097243 -0.038185447
-0.06875164 -0.084502116 -0.0071619754 -0.031958256 0.8621776 0.85812134 0.8234618 -0.05794004
-0.019136392 0.7449795 -0.01705237 -0.031642996 0.84835136 -0.008741702 0.8187757 -0.04167862
0.7532519 0.8536068 0.7476945 -0.11620255 -0.03584401 -0.100325055 0.8424443 -0.11941985
0.8227657 -0.03897318 0.7558881 0.74340767 0.7833123 -0.114182994 0.77490723 0.7583354
0.7485937 0.818766 -0.09505485 0.7942742 -0.075337715 0.7779979 -0.10235 0.8188497
-0.07611261 -0.018327758 0.74154454 -0.07216688 0.7713017 -0.0979852 0.8040022 -0.091857545
0.739523 0.0003053923 0.81459254 0.8015333 0.8189897 0.8425704 -0.017249342 -0.06232947
0.78289855 -0.067151725 0.7991181 -0.049915377 0.7979351 -0.04064087 -0.010553022 0.7430511
-0.05935699 0.8309625 0.8140909 0.79909754 -0.09867556 0.7950866 -0.010340226 0.84247714
0.74527884 0.8522294 0.78751934 -0.021097807 0.7737941 0.82936454 -0.022904294 -0.10373847
0.7905544 0.7812605 -0.055255577 0.76750636 0.74039227 -0.07867164 -0.017090451 -0.03559741
-0.08729875 -0.1181469 0.7542854 0.7882338 -0.03965195 -0.033829615 0.76616293 -0.049022153
0.78727525 -0.106369235 -0.05282281 -0.09599466 0.7732029 -0.06788884 -0.09188904 -0.018155845

model.9.weight f4 [1, 128]
00000000: e870 0c3d 6277 3f3f c1d1 413d a3fc 453f
00000010: a73b 40bc 361a e83c e163 473f 9e34 983b
00000020: 8177 e1bc 3028 393f 52b6 2d3f 39e1 413f
00000030: bddb 2d3c f43b 383f fc77 cdbb 9489 383f
00000040: 057f 3e3f 1c92 413f 1885 3c3f 0d3c 363f
00000050: d18c 3c3f 9bc2 503d f48c 8bbc 6c44 573d
00000060: 90dd 1c3d 1795 02bb 98f4 c7bc 4112 043d
00000070: 27df 3b3f 4464 3c3f baf0 403f c4ba 123d
00000080: 2453 9a3c 6088 3a3f 417f 4cbc 4378 813c
00000090: 342d 423f ada5 e53c ef2d 473f c78f 7339
000000a0: a3cb 453f 6ebf 333f a808 363f 75dd 8e3c
000000b0: f250 033d 6c6a 2fbc d3f7 403f 356c 7fbc
000000c0: 4996 343f eb95 983a 5ea6 493f 6fba 3a3f
000000d0: a205 353f 35a5 eebb 58cc 363f 28ec 3c3f
000000e0: 242a 353f 9b73 453f aba5 e4bc 3a7e 3c3f
000000f0: fcf9 dabc 6a9e 363f f136 6e3c e223 383f
00000100: c613 043c 10c3 ea3b 779c 3b3f fdbe c2bc
00000110: f7cf 3a3f 5e5f 413d 5378 3d3f 937f 383d
00000120: a6b0 453f c112 443d 049f 443f fc33 343f
00000130: ad34 373f 8674 433f 2983 3bbc 3761 223d
00000140: bdd8 3b3f 1238 3f3d 2cf8 3e3f 753b 88bb
00000150: 3834 3e3f 511d 7dbb c898 d4bb 9768 443f
00000160: 55d5 9b3c 4d8b 453f 015a 483f 0732 483f
00000170: 3a3b 393c 6b67 353f 389f 2e3d 9d29 493f
00000180: b3c2 493f bf47 403f d21a 493f 5992 2dbc
00000190: 3aee 433f ffc2 423f 9cc4 0b3d c0e7 1b3d
000001a0: 3e40 413f c25c 403f dabf 083d 3d5f 433f
000001b0: ef3e 433f 4dce 563d 0f7d 663d 4dd5 573d
000001c0: 5212 d439 4d83 dabb 37ec 323f 9544 433f
000001d0: ceea d63c cd3a a93c a731 433f c3e9 dd3c
000001e0: 4b96 483f 1567 9c3c 9a48 f73b 5519 bc3c
000001f0: 6655 343f 42ef 573d 313a b4bc 41b0 203c
0.034287363 0.7479154 0.047319178 0.7733862 -0.011732972 0.02833281 0.7788678 0.0046449443
-0.027522804 0.72326946 0.67856324 0.7573429 0.010611472 0.7196648 -0.006270407 0.7208493
0.74412566 0.7561357 0.73640585 0.7118538 0.7365237 0.05096684 -0.017034985 0.052555487
0.038297236 -0.001992529 -0.024408624 0.03224397 0.7338738 0.73590493 0.7536732 0.035822645
0.018838473 0.7286434 -0.012481512 0.015804416 0.75850224 0.028033102 0.77804464 0.00023227847
0.7726385 0.70213974 0.7110696 0.017439583 0.032059617 -0.010706525 0.7537815 -0.015589763
0.70541817 0.0011641359 0.7876948 0.72940725 0.7071172 -0.007282878 0.71405554 0.73797846
0.70767426 0.77129525 -0.027911028 0.73630106 -0.02673053 0.7133547 0.014539466 0.7192975
0.008061355 0.0071643665 0.7328562 -0.023772711 0.7297358 0.04721009 0.74011725 0.04504354
0.7722267 0.047869448 0.7680514 0.7039182 0.7156475 0.76349676 -0.011444845 0.039643493
0.7337759 0.046684332 0.7459743 -0.0041574785 0.7429843 -0.003862221 -0.0064879395 0.7672209
0.019022623 0.7716568 0.78262335 0.78201336 0.011305625 0.7086093 0.04263231 0.7857912
0.7881271 0.75109476 0.7855655 -0.010593974 0.7653538 0.7607879 0.03412305 0.03806281
0.7548865 0.7514154 0.03338609 0.763172 0.76267904 0.052442838 0.05627161 0.052693654
0.0004044944 -0.0066684843 0.69891685 0.7627652 0.02623501 0.020657921 0.7624764 0.027089005
0.7835433 0.019092122 0.0075464966 0.022961298 0.7044281 0.05271841 -0.022000404 0.009807647
